public/ei-canadian_rat-project-1-classifier-tensorflow-lite-float32-model.11.lite (tflite, 944736 bytes, 6 tensors)

sequential/conv2d/BiasAdd/ReadVariableOp f4 [16]
000000 59 19 99 3b 8c 13 6a 3c a0 ba 25 3b 9b 44 33 bc
       0.004672211 0.014286887 0.002528824 -0.01094165
000010 2f 97 f3 3c 09 82 e6 3c ba 15 79 bb 9a 9c e7 bb
       0.029735176 0.028138177 -0.0038007335 -0.007068229
000020 88 ae 80 3c 9c 90 1a 3c 1f c3 5f 3a 17 97 7f 3b
       0.015708223 0.009433892 0.000853585 0.0038999969
000030 bc 20 55 3b 8e 6d ef ba 41 5e 06 bb 05 98 81 bc
       0.0032520732 -0.0018266903 -0.0020502957 -0.015819559

sequential/conv2d_1/BiasAdd/ReadVariableOp f4 [32]
000000 54 5d c8 3b 7d 97 0e bc 89 b0 04 bc e6 1e ed 3a
       0.006114641 -0.00870311 -0.00809873 0.0018090873
000010 a2 b8 ee 3c 6c 22 38 3a 6d e2 fc bb a2 05 18 bc
       0.029140774 0.0007024172 -0.0077174217 -0.009278687
000020 bd be 19 bb dc 67 d6 3b a7 ea 1f bc 5d db 7f bb
       -0.0023459636 0.0065431427 -0.009760535 -0.0039040663
000030 2c dc 2a 3c 4d e1 fb bb 84 70 da bb bd fc 8f 3b
       0.01042847 -0.00768677 -0.006666245 0.0043941424
000040 b2 9a 1e 3b 22 75 2e bc 9e 4f 81 3c bd 08 14 bc
       0.0024201092 -0.010648044 0.015785035 -0.0090352865
000050 4c 08 1e bc 6b dd 2b bb 2a 89 9a bb 60 35 39 bc
       -0.009645533 -0.0026224505 -0.0047160583 -0.0113042295
000060 94 ec 0d bc 56 d4 a7 3b c7 f2 00 bc 58 38 1c 3b
       -0.008662362 0.005121748 -0.007870383 0.0023837294
000070 18 b8 95 3c f7 92 e5 3b 51 0c 67 3c a0 0f 36 bc
       0.01827626 0.007006045 0.014102058 -0.011112124

sequential/conv2d/Conv2D f4 [16, 3, 3, 3]
000000 ed 7c 23 ba 5c 01 a6 3a 2a 7b 36 be 99 5d e4 3d
       -0.0006236572 0.00126652 -0.17820421 0.11150665
000010 dd 88 f1 bd 36 53 54 3d 41 9f 1a 3e 53 30 25 be
       -0.11793683 0.05183717 0.15099813 -0.16131715
000020 8c 70 b5 bc 1d 29 34 bd d1 68 78 3d 54 46 8a 3d
       -0.022148393 -0.04398452 0.060646836 0.06751695
000030 eb 80 b7 3d 73 1e 40 3c 01 2a 09 3d 1b a5 26 be
       0.08960136 0.01172601 0.033487324 -0.1627392
000040 30 38 2d 3d 29 1c ca 3d 5d 36 fb 3c a5 40 cb 3d
       0.042289913 0.098686524 0.03066557 0.09924439
000050 e3 68 3c 3d 37 c3 15 be ec 09 82 bd 4b 67 3b 3e
       0.045998465 -0.1462525 -0.06349549 0.18301122
000060 6a cf 2f bd b4 bd 21 3e 47 11 20 be 62 c4 33 be
       -0.042922415 0.15795022 -0.15631591 -0.17555383
000070 77 bc f2 bc 21 8a 38 be db f7 1b be a5 f9 5c bb
       -0.029630883 -0.18021442 -0.15231268 -0.0033718136
000080 a7 8c 46 bd 43 ee 10 3e b1 a4 3d 3e f1 d5 26 be
       -0.04847398 0.1415339 0.18519856 -0.1629255
000090 69 c6 45 3e f1 a0 b6 3d 36 b7 95 3d c7 87 56 3d
       0.19313969 0.08917416 0.07310335 0.05237558
0000a0 20 44 1a be 50 70 69 bd 85 d6 0d 3d 15 d8 6a bd
       -0.1506505 -0.056991875 0.03462841 -0.057334978
0000b0 0a 52 75 3d b7 ac df bd 39 65 c9 3b 32 2e 1d 3e
       0.05989269 -0.109216146 0.0061461 0.15349653
0000c0 9e 71 f6 bd 63 74 ac bc 79 41 11 3e 82 b8 d5 3c
       -0.120333895 -0.021051591 0.14185132 0.026088957
0000d0 b4 30 b3 bc bf 7e e1 3d 00 70 fc 3d a4 06 1e be
       -0.02187381 0.11010503 0.1232605 -0.1543222
0000e0 b6 a2 1e be 68 b6 b3 3d ca 77 ca bd 26 d8 a8 3d
       -0.15491757 0.087750256 -0.09886129 0.08244352
0000f0 66 50 bf 3d 45 9f de bd 93 64 e2 3d 11 60 0b 3e
       0.09341507 -0.10870222 0.11054339 0.13610865
000100 92 1c 38 3e c2 26 0c bb 14 16 84 3d 91 16 0e be
       0.17979649 -0.0021385406 0.064495236 -0.13875796
000110 63 92 40 bc 19 7d 06 be 78 e4 20 be 8b 88 39 3e
       -0.011753651 -0.13133658 -0.15712154 0.18118493
000120 28 ae bc 3d 09 c7 d0 bc b6 f0 82 3d 62 43 81 3c
       0.09212905 -0.025485532 0.06393568 0.015779201
000130 1e d1 db 3c e3 79 8c 3d 02 cf 16 3e cb 0a 3f 3e
       0.026833113 0.068591855 0.14727405 0.18656461
000140 e3 21 b8 bd 38 18 25 be 2e 4c 5c bc 18 be 18 3e
       -0.089908384 -0.1612252 -0.013445897 0.14916265
000150 72 1c 21 3e 52 d4 19 3e dd 57 ba bc 43 f0 21 bd
       0.15733507 0.150224 -0.022746975 -0.039535772
000160 3c 9c 31 3d 6d 30 35 3e ab 85 88 3d be 3a ac 3d
       0.043361887 0.17694254 0.0666612 0.08409642
000170 24 1a 01 3e f0 c4 5b 3d 8d 7f 1b 3e 14 46 2e 3e
       0.12607628 0.05365461 0.15185376 0.1701892
000180 cd 6a a7 3d d8 8f f7 3d c8 2f a2 3d 94 dc 9d bd
       0.081746675 0.12087983 0.0791927 -0.077080876
000190 25 1a 3f be f8 ca 18 be 7f 9d 59 bc 2d 69 98 3d
       -0.18662317 -0.14921176 -0.013282179 0.07441936
0001a0 d1 4f 23 3e 67 b9 27 3e c4 ac 03 be d9 14 a0 bd
       0.15948416 0.16379319 -0.12858874 -0.078164764
0001b0 2f f4 34 3e 9f 6e 37 bb 23 cd c0 bd 82 fd e5 3c
       0.17671274 -0.002798952 -0.09414127 0.028074984
0001c0 bb 1e 17 bc 04 0c fc bd 13 a0 e9 3d 03 ce af bc
       -0.009223635 -0.12306979 0.11407485 -0.021460539
0001d0 5f fc b1 bd 55 92 b0 bd 8a 5b 91 bd 9c 9c 00 be
       -0.08690714 -0.086216606 -0.07097538 -0.12559742
0001e0 26 07 0f be c1 1e bf bc 60 82 0b 3e 0a b8 bc bd
       -0.1396757 -0.023330094 0.13623953 -0.0921479
0001f0 8e 7e c7 bd dd 00 e9 3d 2b 78 27 bd d0 68 6d bd
       -0.09740935 0.11377118 -0.040886085 -0.057961285
000200 09 ea 04 3e b2 df 21 3e 29 ed 8e bd d5 75 36 3e
       0.12979902 0.15807989 -0.069788285 0.17818387
000210 ab 2c 80 3d 92 53 0d 3b 57 27 c4 bc 58 06 d8 bc
       0.0625852 0.0021564704 -0.02394454 -0.026370212
000220 58 43 89 3c f7 14 f8 3d 33 c8 9b bd ce c0 64 3c
       0.016755745 0.12113374 -0.07606544 0.013961984
000230 bc 3a 12 bd ad 1d 64 3d 6c 37 0d bd fb a6 07 be
       -0.035700545 0.055692364 -0.034476683 -0.13247292
000240 37 cb e3 3c e2 18 2f bd 20 45 4c 3e 9b 4d 81 bb
       0.027806861 -0.04274834 0.19948244 -0.003946019
000250 df bb 61 3d cc 0f d9 bd ed 4f 23 be d1 be 5c 3d
       0.05511081 -0.10598716 -0.15948458 0.053892914
000260 a1 af 1d 3e b3 c5 e3 bb dd 89 32 3e 9a 09 0d be
       0.15399028 -0.006951058 0.17435403 -0.13773194
000270 22 ca e6 3d 79 59 8f 3d 39 ca 02 be ee e1 c3 bd
       0.112690225 0.069994874 -0.12772454 -0.09564577
000280 92 20 fd bd 68 5b b2 3b 22 39 b4 3d 23 79 dc bc
       -0.12359728 0.0054430254 0.0879996 -0.026913231
000290 20 75 4d bd c0 71 d0 bd e0 23 37 be d6 d3 e9 bd
       -0.050160527 -0.10177946 -0.17884779 -0.114173576
0002a0 9f cf c6 bd 72 1f 83 3c 63 af ab bd 0b f5 c3 3c
       -0.09707569 0.016006205 -0.08383062 0.023920557
0002b0 2f a0 92 bd a8 05 b5 bc d0 55 8a bd 8d eb 34 3e
       -0.07159459 -0.022097424 -0.06754649 0.1766798
0002c0 11 0d 5c 3d c0 ca e8 b8 15 04 b3 3d 10 f4 08 be
       0.0537234 -0.00011100387 0.08741013 -0.13374352
0002d0 4e 48 42 be 9b 76 eb bd 87 ad a7 bd 28 0e da 3d
       -0.18972895 -0.114972316 -0.081873946 0.10647231
0002e0 aa d2 e5 bd 02 ef d0 3d 67 b1 1c 3d 15 f2 b7 bd
       -0.112218216 0.10201837 0.03825512 -0.0898172
0002f0 94 a5 32 be cc 87 03 3e cb c2 b6 3d b2 6c 07 3e
       -0.17445976 0.12844771 0.089238726 0.13225058
000300 f8 a2 15 be 8f fc 82 bd db 3e 1c 3e 7f f7 ca 3d
       -0.14612949 -0.06395828 0.15258352 0.099104874
000310 16 21 8e bd 0a 53 fe bc 3b 38 a6 bd ff 75 8a bd
       -0.069399044 -0.031045455 -0.08116194 -0.06760787
000320 5b 54 28 be 5d 46 f2 3d d8 43 9d bc 14 b1 26 3e
       -0.16438429 0.11829827 -0.01919739 0.16278487
000330 21 7d 98 bd 67 ea d8 3d 60 e8 27 bc e4 a6 a1 3d
       -0.074457414 0.10591584 -0.010248274 0.0789316
000340 c6 2a 9b 3d 92 4f 90 bd 28 d7 c8 bd c2 04 28 be
       0.07576518 -0.07046427 -0.09806663 -0.16408065
000350 58 7b 68 3d c0 ae 5e bb 54 7d 13 3e f3 3b 89 3d
       0.056758255 -0.003397867 0.14403278 0.067008875
000360 2e 7a e0 3d ae c6 3a 3d e7 8d 05 bd ec 7f 89 bd
       0.10960804 0.045599632 -0.03260603 -0.06713852
000370 3b c7 59 bd b5 fd 1b be 0e 95 06 be aa 6e 77 3d
       -0.053168517 -0.152335 -0.13142797 0.06040827
000380 f4 bd 60 bd 46 be 31 be 6d 36 17 bc f3 9f ed 3d
       -0.054868653 -0.1735774 -0.009229285 0.116027735
000390 8b 57 06 39 c6 c6 21 be 5c 01 2a be fc 98 e9 3d
       0.00012811848 -0.15798482 -0.16602081 0.114061326
0003a0 e6 04 9e bd 17 05 09 bd 71 18 62 bd 3a 01 15 3e
       -0.07715778 -0.03345212 -0.05519909 0.14551249
0003b0 44 41 b0 3d 3f e3 05 3e 7a 28 a5 bd 70 57 b9 3d
       0.086061984 0.13074969 -0.08064361 0.090498805
0003c0 d8 09 29 bd 3b d4 36 3e 15 b4 37 3e 92 dd 18 be
       -0.041269153 0.17854397 0.1793979 -0.14928272
0003d0 75 dd 14 3e 9e 0f 22 3e 44 56 2e 3e a1 12 9d bb
       0.14537604 0.1582627 0.17025095 -0.0047934805
0003e0 36 80 cf bd 68 6c 15 be 28 56 73 3d 74 35 8e bd
       -0.10131876 -0.14592135 0.059408337 -0.06943789
0003f0 10 46 36 3e 6e af c4 bd 0d 55 41 3d a4 0a ec bd
       0.17800164 -0.09603773 0.04720025 -0.11525467

sequential/conv2d_1/Conv2D f4 [32, 3, 3, 16]
000000 7e 42 2b 3d 1f d5 ec 3d be 0e 0c bd d9 c3 a5 3b
       0.04181146 0.11564087 -0.034193747 0.0050587473
000010 1f 36 30 3d 25 de 30 3d ec 60 b4 bd 2f 59 b7 3d
       0.043020364 0.043180604 -0.08807549 0.08952557
000020 c6 79 67 3d 82 b4 5b 3d c5 37 d1 bd c5 a4 a8 3d
       0.056512617 0.053638943 -0.10215715 0.08234552
000030 23 8e c6 3b bf 64 ec 3d dc 75 bf 3d 53 dd 9d 3b
       0.0060594245 0.11542653 0.09348652 0.0048176437
000040 68 96 5f bd 60 d9 21 3d f7 b8 c0 bd 15 86 d7 3d
       -0.054586798 0.039513946 -0.09410279 0.10523621
000050 f3 92 2a 3c 38 5d 09 3e fc 73 ec 3d 80 2c 14 3d
       0.010411012 0.13414466 0.1154556 0.03617525
000060 05 9c aa bd 99 38 a9 bd 5c b3 2b bd 49 e3 d1 3d
       -0.083305396 -0.08262748 -0.041919097 0.10248429
000070 c9 3f b7 3d 54 e9 03 3b da dc ab bd 78 e5 0c bd
       0.08947713 0.0020128088 -0.083917335 -0.034398526
000080 2a ae c7 3d 56 88 56 3d 6c 91 4a 3b 9f 64 f6 3d
       0.09750016 0.052376114 0.0030909432 0.12030911
000090 18 33 ae 3d 4b fc 92 bd ed 26 19 bd 22 56 43 3d
       0.08505839 -0.07177027 -0.03739064 0.047689565
0000a0 3b 6d b6 3d 0f 4c 4d bd 27 ab 8a 3d 85 0d 39 3d
       0.08907553 -0.050121363 0.06770926 0.04517891
0000b0 81 30 3f 3d 9b a5 78 bd b2 b3 c3 3d 0d 9d e3 3b
       0.046677116 -0.06070481 0.095557585 0.006946212
0000c0 16 f9 d4 bd 4f b0 a0 bd 81 f4 83 3d e7 41 8a 3d
       -0.10399072 -0.07846128 0.0644312 0.06750851
0000d0 c3 52 14 3e 37 f0 8b 3c 45 a5 84 bd ff 9d 44 3d
       0.14484696 0.017082317 -0.06476835 0.04800224
0000e0 17 1b 09 3e 92 f1 be 3d b0 64 c0 3c b1 5d 12 bd
       0.1338924 0.0932342 0.023485512 -0.035733882
0000f0 02 08 f2 3c 06 8d 93 3d 9d 5e df 3d 32 86 ea bd
       0.029544834 0.072046325 0.10906718 -0.11451377
000100 a0 30 f0 bd 95 4d ab bd 1b ad 04 bc d7 bd bb bd
       -0.117280245 -0.08364407 -0.008097912 -0.091670685
000110 e3 4e bd 3c 36 31 b7 3d c2 be dd 3d 8d 79 b1 bd
       0.023108905 0.08944933 0.108274 -0.08665762
000120 46 3b 09 bc af 91 08 bd 3e 09 16 3d 22 67 32 3c
       -0.008375948 -0.03334206 0.036629908 0.010888847
000130 42 1a 53 3c 91 48 8f bd 3f 78 6b bd 8a 37 86 bd
       0.012884678 -0.06996263 -0.057487722 -0.06553562
000140 54 7e 1c bd 94 df c4 3c 0b af 52 bd b1 98 2a bd
       -0.038206413 0.024032392 -0.051436465 -0.041649524
000150 12 0a 35 bc 96 fb 13 3e 4a c5 4f 3d d1 31 7f bc
       -0.011049764 0.14451441 0.05072526 -0.015575842
000160 42 0c fd 3d c2 da b7 3a 64 db bc 3c 95 45 b5 bd
       0.123558536 0.0014026987 0.023053832 -0.08851162
000170 00 f3 b6 bd 94 c4 3c bc 6f 80 08 bd 8f 73 8a 3d
       -0.08933067 -0.011521477 -0.03332561 0.06760322
000180 48 d6 2b 3d c3 d6 bc 3d 13 4f 65 bd be 49 a7 bd
       0.0419524 0.0922065 -0.055983614 -0.08168362
000190 bf 12 39 3d 94 4d 0a 3e ca 61 23 bd de f3 be 3d
       0.045183893 0.13506156 -0.03988818 0.09323858
0001a0 d6 71 ec 3d 5b 55 00 3d 55 e3 8c 3c 35 0b 3a bd
       0.1154515 0.0313314 0.017198244 -0.045420844
0001b0 92 87 b5 bc 27 cd 8e 3c 06 d5 a8 3c 52 36 29 bd
       -0.022159372 0.017431809 0.02060939 -0.04131157
0001c0 da b6 ea 3c 13 a6 2f 3d 4c 4c 92 bd ed fc 3c 3c
       0.028651644 0.04288299 -0.07143459 0.011534912
0001d0 41 3b f5 3d 33 3e f3 3d 8c 6c ee bd a2 7d fc bc
       0.119741924 0.11877098 -0.116417974 -0.030821625
0001e0 19 26 0a 3e 73 7b f1 3d 9d 13 9f bb 5f 33 ba bd
       0.13491096 0.11791124 -0.004854633 -0.090918295
0001f0 66 65 c2 bc 30 96 ad bc 9e 83 6b bd a2 18 51 3d
       -0.023729991 -0.021189779 -0.057498567 0.051048882
000200 ad b2 62 bd b4 04 0f 3c 68 bf 7f bd 64 3f 62 3a
       -0.05534618 0.008729149 -0.0624384 0.0008630662
000210 ba 90 4b 3d 6e 02 16 3d a5 a2 bc bd 5b 65 a7 ba
       0.04969857 0.03662341 -0.092107095 -0.0012771295
000220 12 dc 74 bd 23 1f 0d bd eb 04 89 bd ee 87 a8 bd
       -0.059780188 -0.034453522 -0.06690391 -0.082290515
000230 64 a4 64 3c 94 9a cd bc 4f 5e 4f 3d 2f 11 f1 3d
       0.013955209 -0.025098123 0.05062705 0.11770856
000240 5c aa 85 bd e7 75 d8 3c 23 74 81 bc 2d a2 20 bd
       -0.06526634 0.026423408 -0.015802449 -0.039217163
000250 d8 7c 1d bd 75 f2 bf bc 94 b0 b1 3d 45 a2 65 3d
       -0.03844914 -0.023431042 0.08676258 0.056062955
000260 f7 89 f6 3d 95 5c 0a 3d c5 2c 82 bd e6 cb a5 bb
       0.120380335 0.0337797 -0.06356195 -0.005059707
000270 ec 9a 0c 3c 01 46 68 3d 6d 84 f5 bd 59 cd cd 3d
       0.008581858 0.056707386 -0.11988149 0.100489326
000280 43 1b 9a 3a 30 6c e8 3d d7 c4 26 bd ce 47 03 3d
       0.0011757392 0.1134876 -0.040715065 0.0320509
000290 cc c2 04 3e 10 8e 1e bd bb 95 02 bd ae 9a ea bd
       0.12964934 -0.0387097 -0.031881075 -0.11455284
0002a0 30 b1 76 bd 1e 1c b3 3d e9 d3 e2 3d 07 0e 59 3b
       -0.060227573 0.08745597 0.11075575 0.0033119933
0002b0 97 d3 7b bd f0 02 23 bc 09 a9 45 3d 57 52 de 3c
       -0.061481085 -0.009949431 0.048256908 0.027138872
0002c0 0b c5 cc bd 52 40 e9 3d 00 22 43 3c 09 0e eb bd
       -0.099985205 0.11389221 0.011909962 -0.11477286
0002d0 42 ab 51 3c 7b 6d a6 3d 0f a7 de bd 9f b5 52 bd
       0.012797179 0.081263505 -0.10871708 -0.05144274
0002e0 4c a4 1e bd 41 9f 01 bd 2c 7f 41 bd c3 9f 4d 3d
       -0.038730904 -0.031646017 -0.04724042 0.05020119
0002f0 5d 1f 4e 3d 72 89 d4 3d ba c1 41 3c f0 1a a3 bd
       0.05032288 0.10377778 0.011825973 -0.07964122
000300 6e 0c bd 3d a0 e6 be 3d 2f 0d d1 3d 35 74 a6 3d
       0.092308864 0.09321332 0.10207593 0.081276335
000310 16 39 9a bc 1f 34 65 3a d0 10 a6 bd 9c 66 9c 3c
       -0.018826049 0.00087434234 -0.081086755 0.019091897
000320 40 89 02 3d 86 79 97 bd f6 a3 12 3c 14 7a bd 3d
       0.031869173 -0.07396226 0.008950224 0.092518
000330 9e 94 94 ba e1 84 d6 bd ff e3 be 3d ed bc 32 3d
       -0.0011335795 -0.104745634 0.093208306 0.043637205
000340 d2 c0 af 3d 69 4a 1b bd 86 b0 90 3d b0 3e da bc
       0.085816994 -0.03791276 0.07064919 -0.02664122
000350 38 13 db 3d b6 b4 31 bd d4 ec 72 bd 67 1c 8d 3d
       0.10697025 -0.04338523 -0.05930789 0.06890183
000360 52 ac af bd a5 be 76 bd 20 9d ab bc d6 6f c7 3d
       -0.08577789 -0.060240407 -0.020948946 0.09738128
000370 20 88 9e bd 4f 57 a8 bd 17 48 90 bd 05 23 bd bd
       -0.077408075 -0.08219778 -0.07045 -0.09235195
000380 b8 46 ec bb 14 8f 5f bc 7f 4e 05 bd d9 6e d7 bb
       -0.007210579 -0.013644952 -0.032545563 -0.0065744934
000390 44 53 7c 3c 79 a4 87 3d a4 e0 78 3c 52 14 a4 3c
       0.015400711 0.066231675 0.015190277 0.02002922
0003a0 b5 53 16 bd de 18 ad 3c 6e 42 e6 3c 93 9f 95 3d
       -0.036700923 0.021130022 0.028107848 0.07305827
0003b0 0a b1 ec 3c 35 9b d0 bc 4f 2e c1 3d fe 9c 75 3d
       0.028893013 -0.025464633 0.09432661 0.059964173
0003c0 c0 5f 76 bd de 75 0c bc 4d 24 61 bd 54 ac 68 3c
       -0.060149908 -0.008573024 -0.05496626 0.0142012425
0003d0 07 c1 11 3e e6 f7 d2 3d ac d6 1f bd 54 f5 5e 3d
       0.1423379 0.10301189 -0.039023086 0.054433182
0003e0 4a 91 65 bd f5 2b b2 3d 3d 8a bf 3d d1 af 82 bd
       -0.05604676 0.086997904 0.09352539 -0.063811906
0003f0 1c 77 8a bd 61 fd 67 3d 3d 02 cb bd 8d e5 a5 3c
       -0.067609996 0.056638125 -0.09912536 0.02025106

sequential/y_pred/BiasAdd/ReadVariableOp f4 [2]
000000 1a 53 a5 b8 9e 53 a5 38
       -7.883292e-05 7.883388e-05

sequential/y_pred/MatMul f4 [2, 115200]
000000 a7 25 20 3b 97 61 c7 bb 2d 87 ad 3b fa 06 d4 3b
       0.0024436505 -0.0060846317 0.005295655 0.0064705582
000010 56 72 d2 b8 0b 0a 93 bb 97 9f 27 bb 4f b5 f2 bb
       -0.00010034877 -0.004487281 -0.00255773 -0.0074068676
000020 cb e3 c8 39 bb 63 1c 3b e7 36 ad bb a3 ff b2 bb
       0.00038316692 0.0023863155 -0.005286086 -0.005462603
000030 bd 7a 0e bc 8b a4 f3 3b f3 bc 6a ba 7b 26 28 3b
       -0.008696255 0.0074353865 -0.0008954547 0.0025657702
000040 93 c1 9c 3b c0 1b 5f 3b 30 a1 bf 39 a8 c6 57 bb
       0.004783818 0.003404364 0.00036550453 -0.0032924805
000050 fb 0f 5a 3b a2 12 20 3b 80 13 a0 b9 b3 b8 6e 3b
       0.0033273685 0.0024425169 -0.00030532107 0.0036426007
000060 30 c2 54 bb 66 36 3a 3b 89 b3 a8 3b 3c 1e a8 3a
       -0.0032464378 0.0028413772 0.0051483554 0.0012826393
000070 5f 7a 56 ba c3 bb ac 3b e3 ff 5b bc a6 56 be 3b
       -0.0008181687 0.0052714064 -0.013427707 0.005808669
000080 33 68 0e bb df 32 00 3c 58 1a 6f 3b bf e2 ec ba
       -0.0021729588 0.007824629 0.0036484208 -0.0018072947
000090 85 b5 e1 bc f6 38 fd bb 2a 38 29 39 d1 39 ad 3b
       -0.027552376 -0.0077277375 0.00016138019 0.0052864333
0000a0 c9 b5 33 3b 7d c1 a5 3b 76 22 af bb 74 1f 26 3b
       0.0027421585 0.005058466 -0.0053446842 0.0025348337
0000b0 dc a5 06 bc 3f 77 8b 3b 62 6f 24 3a dc 0d c5 bb
       -0.008218255 0.0042561586 0.0006272701 -0.006013615
0000c0 eb 1a cd b9 a2 71 b8 bb c8 a8 80 b8 82 0a b9 bb
       -0.00039120702 -0.0056287805 -6.1349536e-05 -0.0056470046
0000d0 72 04 bf 3b 85 f2 d0 bb 80 53 76 3b 29 1b 45 ba
       0.0058293873 -0.006376567 0.003758639 -0.0007519001
0000e0 4b 4f d1 bb 45 c8 0a bc 6b 92 9b 3b e0 1f d8 39
       -0.0063876263 -0.0084706 0.004747679 0.0004122248
0000f0 1a 16 70 bb 40 3a 0d 3b 9e fa 23 bc 30 a9 46 3b
       -0.0036634267 0.0021549612 -0.010008482 0.0030313246
000100 fd 73 6e ba 4a bf 99 bb b8 1d b5 3b 35 b6 0e 3b
       -0.0009096263 -0.004691993 0.0055272244 0.0021776084
000110 7d 74 ab bc 0b c4 b7 3b f1 37 33 bb 1d c6 63 3b
       -0.02092957 0.005608087 -0.0027346576 0.0034755536
000120 b5 38 04 3b 3f 2c 72 bb bc 69 4b 3a 20 58 b5 bb
       0.0020175402 -0.0036952642 0.0007759591 -0.005534187
000130 2f 56 61 bb 09 25 be 39 e5 04 99 3a 54 ff 22 3b
       -0.0034383645 0.00036267217 0.0011674432 0.0024871426
000140 64 ca 0e b8 a9 fa 71 3a 9b ad 55 bb 66 ae 88 ba
       -3.404393e-05 0.00092307717 -0.0032604698 -0.0010427951
000150 e3 12 2b 38 05 b3 83 3b 21 99 0a 3b 26 18 a1 3b
       4.0787167e-05 0.0040191435 0.00211484 0.004916209
000160 3a 41 d0 3b 0f 04 38 bb fb 5b 19 3a 2b 07 ae ba
       0.006355432 -0.002807859 0.0005850193 -0.0013277283
000170 1c 42 81 3b 75 ae 23 bb 8c 12 41 bc c1 27 08 3a
       0.0039446484 -0.002497581 -0.011784207 0.0005193912
000180 c6 ce d7 3a a8 be 4a 3b 37 70 99 3b d3 3e 81 bb
       0.0016464822 0.0030936394 0.0046825665 -0.003944257
000190 34 4a e1 bb 04 fd 4f 38 ac e8 e0 bb af 50 00 ba
       -0.006875301 4.9588285e-05 -0.006863674 -0.00048948353
0001a0 a6 9d b2 3a 1d 92 fe 3a 7e ea 4d bb f7 78 04 3b
       0.0013627305 0.0019422207 -0.0031420286 0.0020213702
0001b0 4b 8a 2c bc 08 08 ba bb 49 b0 44 3b 8f 90 e8 bb
       -0.0105310185 -0.005677227 0.00300123 -0.007097311
0001c0 a7 f7 d8 bb 7e bc 99 3b e5 9b 8b 3a e6 a8 be 3b
       -0.0066213193 0.0046916595 0.0010651319 0.005818474
0001d0 96 fc 4a 3b 95 13 61 3b 04 a8 01 ba 89 49 d5 bb
       0.0030973307 0.0034343947 -0.0004945996 -0.00650901
0001e0 0a a1 26 ba a5 38 51 bb 77 4a a3 39 17 eb cf 3b
       -0.0006356394 -0.0031924632 0.00031145263 0.0063451636
0001f0 62 1b bd 3b 34 50 0f bb ff c3 89 ba ce 83 9a bb
       0.0057710866 -0.0021867873 -0.0010510682 -0.0047154194
000200 ad 08 af 3a 67 fc 1c 3b 05 ff ca bb bb 5b 4f 3b
       0.0013354026 0.0023954154 -0.0061949515 0.003164037
000210 f4 ed ae bc bd 1b 06 bb de fa 96 b9 62 33 f3 ba
       -0.0213537 -0.002046331 -0.0002879714 -0.0018554742
000220 5c b6 ca bb 26 3b 46 bb 04 52 c3 3a 32 e2 49 3a
       -0.0061862897 -0.0030247658 0.0014901762 0.0007701247
000230 c2 9f 22 3b 68 3f af 3b 44 cb 49 ba 71 d0 a6 ba
       0.0024814461 0.005348135 -0.00076978304 -0.0012726915
000240 61 f4 d0 ba 93 8b b9 bb 4b d8 a8 bb 7f ab 53 3b
       -0.0015941971 -0.0056623905 -0.0051527373 0.0032298265
000250 86 94 65 3a bb 00 c9 3b 57 ab 76 bb ca e8 2d ba
       0.00087577885 0.0061341203 -0.0037638748 -0.00066341145
000260 06 88 87 bb 03 5a 4f b9 f3 76 b3 3a 72 2a 84 bb
       -0.0041360883 -0.0001977459 0.0013692066 -0.00403338
000270 52 f1 52 39 2a be c0 3a d0 37 39 bc 39 6a 84 38
       0.0002011706 0.0014705111 -0.011304811 6.314036e-05
000280 a6 0a f6 bb ec 5c 6e 3a a9 d4 67 39 d7 1b 84 bb
       -0.0075085936 0.0009092826 0.00022109099 -0.004031639
000290 54 ea b5 bc 19 9b 09 bb 8b 1a 7c 3b c5 1e c3 3b
       -0.022206463 -0.0020996986 0.003846797 0.0059545957
0002a0 4a 32 62 3b 9d 37 13 bc 84 a3 df ba b3 4b 01 bb
       0.0034514838 -0.008985427 -0.0017062281 -0.0019728958
0002b0 ed 20 cb 3b 95 12 ab 3b c3 19 07 3b 2d e8 e2 bb
       0.0061989934 0.005220721 0.002061472 -0.00692465
0002c0 62 86 f5 3a ea 77 c0 bb 00 56 f7 3a 8e 2c 68 3b
       0.0018732066 -0.00587367 0.0018870234 0.0035426947
0002d0 7a db b1 3b 2b a8 7a 3b 9c d8 7c 3b da 7e 0d 3b
       0.005427775 0.0038247209 0.0038581258 0.0021590502
0002e0 05 4f cc 3a 5d 02 cc bb 96 ef 8f bb a0 06 12 bc
       0.0015587514 -0.0062258677 -0.0043925745 -0.008912712
0002f0 2b e2 0e b8 19 93 3a 3c 38 50 48 bc 03 6c b8 bb
       -3.4066074e-05 0.01138761 -0.012226157 -0.0056281104
000300 a5 3a 0d 3b ac 77 f6 3a 4f 1c a0 3b 8e 26 dc bb
       0.0021549847 0.0018803976 0.004886187 -0.0067184633
000310 3e d3 7e bc 6b 8a f0 ba d8 e7 e5 3b 9c e5 a0 3b
       -0.015553294 -0.0018351799 0.0070161633 0.004910184
000320 ff 09 02 ba 72 1c 20 39 87 ad 8b 3b 28 ff f4 bb
       -0.0004960596 0.00015269386 0.0042626294 -0.007476706
000330 a2 48 80 3b 4a 2e 8d bb 85 c9 9c bb 53 6d d1 39
       0.0039149085 -0.0043084966 -0.004784765 0.0003994504
000340 04 98 07 bc ad d0 ea b9 7a d0 79 bb fa 28 e7 3b
       -0.008275989 -0.00044787434 -0.0038118646 0.0070544453
000350 b5 87 9b bb 1b 30 39 ba a4 dd 5b 3b 23 37 5f 3a
       -0.004746402 -0.0007064358 0.0033548856 0.0008514991
000360 c7 43 6e ba a9 aa 11 ba fe 09 1b 3b 81 ab e1 bb
       -0.0009089079 -0.00055567414 0.002365708 -0.0068869
000370 c4 ad 08 3c ef a7 20 3b 2e 6c 93 ba 98 d8 8b 3a
       0.00834221 0.0024514159 -0.001124745 0.0010669408
000380 79 ac 64 b9 34 ac cb 3b 67 a5 df 3b 54 ad 92 bb
       -0.00021808025 0.0062155966 0.0068251374 -0.0044762287
000390 97 83 3b bc 17 f0 9f bb d7 8c 99 3a 60 7b 41 3a
       -0.011444948 -0.004880916 0.0011714947 0.000738075
0003a0 59 e2 a0 3b 4e 7c c4 b9 f9 ad d4 3b 36 12 d9 bb
       0.0049097952 -0.00037476647 0.0064904657 -0.0066244854
0003b0 3f 36 aa bb a7 58 b9 3b f8 da 46 bb a8 c3 cf 3b
       -0.005194455 0.00565632 -0.0030342918 0.0063404627
0003c0 56 33 b2 3b fb e0 57 3b 05 d8 c8 3b a7 9d c8 bb
       0.0054382486 0.0032940495 0.006129267 -0.0061223092
0003d0 ff 3f e3 3a 9d 44 a3 3a 08 3b 73 ba f9 f1 8c bb
       0.0017337798 0.0012456361 -0.00092785107 -0.0043013063
0003e0 df 86 33 bb 2f 12 fd 3a 95 53 b0 b8 19 d7 b8 bb
       -0.0027393622 0.0019307787 -8.407902e-05 -0.005640876
0003f0 2a 76 5e ba 86 15 bf 3b 9b d0 8d bb 7f 28 15 bb
       -0.0008486236 0.005831423 -0.004327846 -0.0022759733
